…
y) (1.3.1)\nRequirement already satisfied: yarl<2.0,>=1.0 in c:\\programdata\\miniconda3\\envs\\invokeai\\lib\\site-packages (from aiohttp<4,>=3.7.4->discord.py) (1.8.2)\nRequirement already satisfied: idna>=2.0 in c:\\programdata\\miniconda3\\envs\\invokeai\\lib\\site-packages (from yarl<2.0,>=1.0->aiohttp<4,>=3.7.4->discord.py) (2.10)\nRequirement already satisfied: nest_asyncio in c:\\users\\shadow\\appdata\\roaming\\python\\python310\\site-packages (1.5.6)\nOutput exceeds the size limit. Open the full output data in a text editor\nGPTNeoForCausalLM(\n  (transformer): GPTNeoModel(\n    (wte): Embedding(50257, 2048)\n    (wpe): Embedding(2048, 2048)\n    (drop): Dropout(p=0.0, inplace=False)\n    (h): ModuleList(\n      (0-23): 24 x GPTNeoBlock(\n        (ln_1): LayerNorm((2048,), eps=1e-05, elementwise_affine=True)\n        (attn): GPTNeoAttention(\n          (attention): GPTNeoSelfAttention(\n            (attn_dropout): Dropout(p=0.0, inplace=False)\n            (resid_dropout): Dropout(p=0.0, inplace=False)\n            (k_proj): Linear(in_features=2048, out_features=2048, bias=False)\n            (v_proj): Linear(in_features=2048, out_features=2048, bias=False)\n            (q_proj): Linear(in_features=2048, out_features=2048, bias=False)\n            (out_proj): Linear(in_features=2048, out_features=2048, bias=True)\n          )\n        )\n        (ln_2): LayerNorm((2048,), eps=1e-05, elementwise_affine=True)\n        (mlp): GPTNeoMLP(\n          (c_fc): Linear(in_features=2048, out_features=8192, bias=True)\n          (c_proj): Linear(in_features=8192, out_features=2048, bias=True)\n          (act): NewGELUActivation()\n          (dropout): Dropout(p=0.0, inplace=False)\n        )\n...\n    )\n    (ln_f): LayerNorm((2048,), eps=1e-05, elementwise_affine=True)\n  )\n  (lm_head): Linear(in_features=2048, out_features=50257, bias=False)\n)\n\n\n\n[2023-03-24 22:07:03] [INFO    ] discord.client: logging in using static token\n[2023-03-24 22:07:04] [INFO    ] discord.gateway: Shard ID None has connected to Gateway (Session ID: 1df0cd219e9a00be727005a552694369).\n[2023-03-24 22:07:37] [ERROR   ] discord.client: Ignoring exception in on_message\nTraceback (most recent call last):\n  F
…
board 2.11.2 requires protobuf<4,>=3.9.2, but you have protobuf 4.22.1 which is incompatible.\nstreamlit 1.12.0 requires protobuf<4,>=3.12, but you have protobuf 4.22.1 which is incompatible.\nc:\\ProgramData\\miniconda3\\envs\\invokeai\\lib\\site-packages\\tqdm\\auto.py:22: TqdmWarning: IProgress not found. Please update jupyter and ipywidgets. See https://ipywidgets.readthedocs.io/en/stable/user_install.html\n  from .autonotebook import tqdm as notebook_tqdm\nOutput exceeds the size limit. Open the full output data in a text editor\nGPTNeoForCausalLM(\n  (transformer): GPTNeoModel(\n    (wte): Embedding(50257, 2048)\n    (wpe): Embedding(2048, 2048)\n    (drop): Dropout(p=0.0, inplace=False)\n    (h): ModuleList(\n      (0-23): 24 x GPTNeoBlock(\n        (ln_1): LayerNorm((2048,), eps=1e-05, elementwise_affine=True)\n        (attn): GPTNeoAttention(\n          (attention): GPTNeoSelfAttention(\n            (attn_dropout): Dropout(p=0.0, inplace=False)\n            (resid_dropout): Dropout(p=0.0, inplace=False)\n            (k_proj): Linear(in_features=2048, out_features=2048, bias=False)\n            (v_proj): Linear(in_features=2048, out_features=2048, bias=False)\n            (q_proj): Linear(in_features=2048, out_features=2048, bias=False)\n            (out_proj): Linear(in_features=2048, out_features=2048, bias=True)\n          )\n        )\n        (ln_2): LayerNorm((2048,), eps=1e-05, elementwise_affine=True)\n        (mlp): GPTNeoMLP(\n          (c_fc): Linear(in_features=2048, out_features=8192, bias=True)\n          (c_proj): Linear(in_features=8192, out_features=2048, bias=True)\n          (act): NewGELUActivation()\n          (dropout): Dropout(p=0.0, inplace=False)\n        )\n...\n    )\n    (ln_f): LayerNorm((2048,), eps=1e-05, elementwise_affine=True)\n  )\n  (lm_head): Linear(in_features=2048, out_features=50257, bias=False)\n)\n\n\n\n\u256d\u2500\u2500\u2500\u2500\u2500\u2500\u2500\u2500\u2500\u2500\u2500\u2500\u2500\u2500\u2500\u2500\u2500\u2500\u2500\u2500\u2500\u2500\u2500\u2500\u2500\u2500\u2500\u2500\u2500\u2500\u2500 Traceback (most recent call last) \u2500\u2500\u2500\u2500\u2500\u2500\u2500\u2500\u2500\u2500\u2500\u2500\u2500\u2500\u2500\u2500\u2500\u2500\u250
…
